model.pt (torch, 83949 bytes, 108 tensors)

gen.0.0.weight f4 [8, 2]
0.39386722 0.1704844 -0.25529745 0.62824756 -0.20553142 -0.6730382 0.23758635 -0.24044222
-0.395648 -0.6671867 -0.18976855 0.5361276 0.291075 0.64602184 0.26506212 0.30119398
00000000: f7a8 c93e 7693 2e3e 59b6 82be d5d4 203f
00000010: d476 52be 3b4c 2cbf d649 733e 7c36 76be
00000020: 6092 cabe bfcc 2abf b052 42be a93f 093f
00000030: c807 953e b061 253f 39b6 873e 1936 9a3e

gen.0.0.bias f4 [8]
-0.47602218 -0.4125138 -0.034935303 0.25159594 0.70836306 0.6916626 0.66613036 -0.42834368
00000000: 2eb9 f3be 0235 d3be 5218 0fbd 2fd1 803e
00000010: 4857 353f cd10 313f 8587 2a3f dd4f dbbe

gen.0.2.weight f4 [8]
1.0331544 0.9876939 0.9530417 1.0498719 0.9445995 1.0112472 1.0088743 1.022854
00000000: 673e 843f 82d9 7c3f 8afa 733f 3462 863f
00000010: 46d1 713f 8c70 813f cb22 813f e1ec 823f

gen.0.2.bias f4 [8]
0.038227104 0.010482418 0.0029230472 0.0127026355 -0.01973574 0.015175867 0.02572202 0.018521635
00000000: 0694 1c3d 73be 2b3c 9890 3f3b b71e 503c
00000010: d9ac a1bc 33a4 783c fcb6 d23c afba 973c

gen.0.2.running_mean f4 [8]
-0.43967757 -0.38050494 -0.09176398 0.26023108 0.61878455 0.6990161 0.69303185 -0.3856655
00000000: 6b1d e1be 8bd1 c2be c1ee bbbd 023d 853e
00000010: aa68 1e3f b8f2 323f 896a 313f f375 c5be

gen.0.2.running_var f4 [8]
0.31974712 0.6784421 0.71210057 0.19496773 0.9853338 0.6233694 0.85986626 0.28852937
00000000: e5b5 a33e 62ae 2d3f 394c 363f 9fa5 473e
00000010: d63e 7c3f 2395 1f3f 3220 5c3f 1fba 933e

gen.1.0.weight f4 [16, 8]
-0.20632036 0.00452977 0.3166642 0.13808127 0.0019326351 0.17867121 0.18160804 0.25767997
-0.30068997 -0.28429708 0.2046864 -0.0670852 0.065857604 -0.050055083 0.1281668 -0.112857334
0.0933249 0.21625678 0.1868654 0.08964319 0.23841362 -0.3516192 -0.34640107 -0.049605884
0.2687964 -0.111954086 0.10996741 0.06989342 0.06616191 -0.065420695 -0.08903171 0.11451182
-0.12302373 -0.18093646 -0.048330687 -0.09067871 0.33404398 -0.017982714 -0.12583153 0.09681295
0.34149244 0.08162533 -0.15882656 -0.28861958 -0.22389571 -0.18515486 0.0075617507 -0.31824
-0.25023967 0.082813546 -0.30469194 0.048208542 0.11844301 -0.11865115 0.14417414 -0.074717745
0.30958226 0.16205756 -0.18982416 -0.19939366 0.08665291 0.08014996 -0.122640446 -0.0044917394
-0.25143874 -0.061072785 -0.019214755 0.054531045 0.010670288 -0.28692994 0.2743452 0.17509219
0.0115458835 0.29779276 0.14327653 -0.2310682 -0.2642277 -0.14459875 -0.3403855 0.14455365
-0.2561488 -0.2735922 0.067358695 -0.016102362 0.032896303 0.1314396 -0.28006753 -0.12103999
-0.2430728 0.30479184 -0.11516485 0.18238607 -0.3406965 0.12650171 0.12267381 -0.2806736
-0.07024232 -0.35452542 0.22365184 -0.37181062 0.19993284 0.27135178 0.24951921 -0.3672497
0.10065949 0.23574924 -0.09067098 0.045387544 -0.32902747 -0.014808723 -0.33218122 0.35041463
0.014328977 -0.069843546 0.23399083 -0.26738384 -0.2986965 0.0681073 0.33967403 -0.25841808
0.12421331 -0.08242679 0.2823762 0.06073995 0.21011664 -0.25223726 -0.26044008 -0.24514675
00000000: a545 53be 776e 943b cf21 a23e 2d65 0d3e
00000010: 7950 fd3a 96f5 363e 75f7 393e a1ee 833e
00000020: 09f4 99be 638f 91be 5099 513e f763 89bd
00000030: 5ae0 863d 8f06 4dbd 283e 033e bf21 e7bd
00000040: 2021 bf3d 6b72 5d3e a559 3f3e d996 b73d
00000050: b322 743e 6f07 b4be 7b5b b1be 8a2f 4bbd
00000060: af9f 893e 2f48 e5bd 9836 e13d 4824 8f3d
00000070: e57f 873d 49fb 85bd 4256 b6bd 2c85 ea3d
00000080: def3 fbbd 6847 39be 66f6 45bd c2b5 b9bd
00000090: d007 ab3e 7c50 93bc fbd9 00be de45 c63d
000000a0: 19d8 ae3e 2e2b a73d 6ea3 22be f2c5 93be
000000b0: eb44 65be 3c99 3dbe 90c8 f73b 5af0 a2be
000000c0: 6a1f 80be 269a a93d 9500 9cbe 5276 453d
000000d0: 4092 f23d 60ff f2bd 63a2 133e 9e05 99bd
000000e0: 9181 9e3e 6bf2 253e 4461 42be da2d 4cbe
000000f0: 1577 b13d aa25 a43d ea2a fbbd 712f 93bb
00000100: 94bc 80be 7527 7abd 4368 9dbc f25b 5f3d
00000110: 6ed2 2e3c 7be8 92be f976 8c3e 5e4b 333e
00000120: f22a 3d3c 4b78 983e 15b7 123e 249d 6cbe
00000130: da48 87be b211 14be 0247 aebe df05 143e
00000140: ef25 83be 4714 8cbe 5bf3 893d 1ae9 83bc
00000150: 46be 063d 1a98 063e 0365 8fbe d0e3 f7bd
00000160: 13e8 78be ad0d 9c3e 8ddb ebbd 6ac3 3a3e
00000170: c66f aebe aa89 013e 683c fb3d 73b4 8fbe
00000180: 35db 8fbd 5b84 b5be fd04 653e f65d bebe
00000190: 32bb 4c3e 9fee 8a3e f781 7f3e 2708 bcbe
000001a0: 9026 ce3d 4068 713e b5b1 b9bd 4ae8 393d
000001b0: 4a76 a8be 49a0 72bc a813 aabe 8c69 b33e
000001c0: 16c4 6a3c 220a 8fbd 4b9b 6f3e 89e6 88be
000001d0: bfee 98be d77b 8b3d c1e9 ad3e 604f 84be
000001e0: 8c63 fe3d 60cf a8bd 9d93 903e 74ca 783d
000001f0: d128 573e 3e25 81be 6758 85be c007 7bbe

gen.1.0.bias f4 [16]
-0.12320518 -0.30023876 0.13424489 0.113520496 -0.32081038 -0.07624067 -0.053074867 0.22279513
-0.14826813 0.33931032 0.18629336 -0.027311137 -0.15261438 -0.26236492 0.3125531 -0.0406627
00000000: ff52 fcbd e5b8 99be 7e77 093e 6f7d e83d
00000010: 4241 a4be 1224 9cbd 0865 59bd 6824 643e
00000020: 9ad3 17be 15ba ad3e b0c3 3e3e 9bbb dfbc
00000030: f246 1cbe b254 86be f606 a03e ee8d 26bd

gen.1.2.weight f4 [16]
0.98390234 1.0671346 0.94589376 1.0471818 1.0199032 1.0192872 0.9490296 1.0193937
0.9805138 0.9901533 0.95295316 1.0050144 0.9505927 1.0114557 1.0300324 0.96269935
00000000: 06e1 7b3f de97 883f 1826 723f 0e0a 863f
00000010: 308c 823f 0178 823f 9bf3 723f 7e7b 823f
00000020: f402 7b3f b07a 7d3f bdf4 733f 50a4 803f
00000030: 0b5a 733f 6177 813f 1ad8 833f 7773 763f

gen.1.2.bias f4 [16]
0.009442384 0.05699029 -0.0018792787 0.030258331 0.046491146 0.020031795 -0.0026300997 0.063321926
0.0039587985 0.015772425 0.024946727 0.0046734046 0.030452834 0.010158787 0.060397774 -0.029214855
00000000: 3bb4 1a3c a66e 693d 2152 f6ba 52e0 f73c
00000010: 806d 3e3d b819 a43c c05d 2cbb edae 813d
00000020: cfb8 813b 2c35 813c 145d cc3c 5c23 993b
00000030: 3978 f93c 0a71 263c a863 773d fe53 efbc

gen.1.2.running_mean f4 [16]
0.21023682 -0.5077373 0.14487849 0.2719942 -0.42014053 -0.3972751 -0.18972577 0.2892856
-0.2000052 0.168369 -0.11328508 -0.112842515 -0.28554276 -0.24231617 0.22404632 -0.14338495
00000000: 5248 573e 12fb 01bf 075b 143e d342 8b3e
00000010: a91c d7be a467 cbbe 7947 42be 3e1d 943e
00000020: 2ace 4cbe ec68 2c3e 0202 e8bd fa19 e7bd
00000030: a932 92be bb21 78be 666c 653e 81d3 12be

gen.1.2.running_var f4 [16]
0.089354575 0.20914872 0.3073955 0.1051129 0.1610107 0.18441062 0.057575684 0.11670727
0.096751556 0.105819486 0.17254624 0.20341748 0.2440891 0.16146423 0.17018485 0.36800018
00000000: 88ff b63d 152b 563e f162 9d3e 6f45 d73d
00000010: fddf 243e 23d6 3c3e 7bd4 6b3d 3904 ef3d
00000020: ae25 c63d e3b7 d83d f6af 303e ac4c 503e
00000030: 7ef2 793e e156 253e f044 2e3e 856a bc3e

gen.2.0.weight f4 [32, 16]
-0.1635458 0.104296036 -0.017446527 -0.064346276 -0.25189328 0.005986284 -0.24818313 -0.20599468
0.17917502 -0.06670689 -0.082563885 0.051777866 -0.047275007 -0.009387588 0.12388997 -0.045296017
-0.043090206 0.12053635 -0.16739966 0.054608826 0.17494337 0.13492 0.09147304 0.24344485
0.2258661 -0.24861068 0.14841424 0.27782393 0.09010711 -0.0023253106 0.22363757 -0.131189
-0.20613538 -0.11827303 -0.13413936 -0.03511047 0.07228227 0.08581615 -0.044216145 0.21744463
-0.005936956 -0.030333996 0.1637406 -0.009995086 -0.22468545 -0.09132738 0.18304901 -0.028257491
-0.035175115 0.03416109 -0.04491981 0.023368027 -0.20113486 0.068648696 0.08474774 0.086352065
-0.0904166 -0.22350709 -0.02401438 0.21363021 0.06904996 -0.19860283 -0.14007916 0.017265785
0.02878255 -0.040404767 0.06115347 -0.27064255 0.08100764 0.037666954 0.11045813 -0.19285879
-0.18212932 0.104343325 0.01883927 0.08240407 0.113591135 -0.1652774 -0.023338031 0.18406472
0.008873317 -0.22728243 0.042162403 -0.0482421 -0.2215893 -0.17742439 -0.21113212 0.021653058
-0.08306252 0.15436871 0.06382206 -0.07269703 -0.2159467 -0.21811979 -0.04368528 -0.095601
0.18094322 -0.09880448 -0.14605154 -0.058473025 -0.09142295 0.18220079 -0.005610744 0.14158176
-0.044327132 -0.23624606 0.14072843 -0.14256568 -0.037982162 0.1854429 -0.117164254 -0.063653335
0.14437479 -0.07284997 -0.03789933 0.17663798 -0.16002138 -0.20605676 0.09001084 0.054212462
0.114010505 -0.003298824 0.2070959 0.013522476 -0.09529109 0.08883139 -0.2328035 -0.096302554
0.102183126 -0.21707332 -0.06606734 -0.15780123 -0.10277449 -0.1722372 0.03442488 0.00563737
-0.21371324 0.16564094 0.17881136 -0.05383947 -0.21253014 -0.10950729 -0.12005358 -0.10568466
-0.0389653 0.06034979 -0.14839101 0.19428921 0.18026571 0.06961374 0.061372288 0.09682875
-0.054313313 0.023196982 0.1915079 -0.22211611 0.17369038 -0.06090009 -0.22736073 0.23689574
0.07895458 0.22254717 0.03627054 -0.12660666 -0.24331073 0.14289008 0.09587536 -0.058464557
0.07708633 0.18711068 -0.21905513 0.043391448 0.2055222 0.026629766 -0.19148614 -0.17661257
-0.17966518 -0.1856185 0.030850602 -0.087970965 0.10101306 0.20942082 0.12799698 -0.17645319
-0.14511314 -0.27871332 -0.055284 0.057407375 0.07694533 -0.27456656 0.2233463 0.0072945096
-0.15875813 -0.17722274 0.19023263 -0.2051521 0.08950881 0.09402615 -0.25499377 -0.23722684
0.20758499 0.19533817 0.2168316 0.16058752 -0.08568794 -0.13361609 0.090710744 0.20684019
0.15088154 -0.063020244 0.11093923 -0.08053244 0.22414926 -0.15891513 0.16200562 0.0034908056
-0.11080945 -0.19951327 -0.15846826 0.019743497 -0.14278351 -0.23817693 -0.24820025 0.031194624
-0.23300609 -0.07803918 -0.045000765 0.03336782 -0.102967985 -0.03571275 -0.03360199 -0.09541776
0.21136351 0.04731259 0.004679546 -0.24108148 -0.023232348 -0.059045054 0.1062434 -0.23052518
-0.09817404 -0.07506043 0.008418392 0.2152241 0.2234864 -0.20205414 -0.1715368 -0.13967851
0.10216542 -0.1431601 0.14415161 -0.09981754 -0.049744215 0.03868161 -0.1212735 -0.0152899325
00000000: 8d78 27be 2999 d53d 05ec 8ebc fbc7 83bd
00000010: 28f8 80be 9728 c43b b823 7ebe 45f0 52be
00000020: a879 373e 9f9d 88bd 4117 a9bd 0715 543d
00000030: 70a3 41bd 66ce 19bc 06ba fd3d 5188 39bd
00000040: 5b7f 30bd c3db f63d d16a 2bbe 81ad 5f3d
00000050: 5b24 333e 7828 0a3e 3856 bb3d 9b49 793e
00000060: 7149 673e cc93 7ebe e7f9 173e f03e 8e3e
00000070: 148a b83d 3d64 18bb 3f01 653e 6956 06be
00000080: 2715 53be 2139 f2bd d45b 09be ffcf 0fbd
00000090: ba08 943d 61c0 af3d fd1b 35bd cea9 5e3e
000000a0: cc8a c2bb 007f f8bc 9eab 273e 6ec2 23bc
000000b0: f113 66be d909 bbbd 3371 3b3e 417c e7bc
000000c0: c813 10bd 80ec 0b3d d6fd 37bd 4e6e bf3c
000000d0: 4cf6 4dbe b097 8c3d 3990 ad3d 5ad9 b03d
000000e0: 572c b9bd 0bdf 64be ceb9 c4bc e1c1 5a3e
000000f0: 116a 8d3d 8a5e 4bbe e970 0fbe fa70 8d3c
00000100: 62c9 eb3c 787f 25bd 107c 7a3d a991 8abe
00000110: 55e7 a53d aa48 1a3d df37 e23d c67c 45be
00000120: 1c80 3abe f4b1 d53d d054 9a3c 77c3 a83d
00000130: 78a2 e83d 7b3e 29be 662f bfbc 767b 3c3e
00000140: 6461 113c babc 68be 7cb2 2c3d 8299 45bd
00000150: 4ee8 62be bdae 35be 0533 58be c161 b13c
00000160: af1c aabd d512 1e3e 24b5 823d 2ee2 94bd
00000170: 2221 5dbe cb5a 5fbe 56ef 32bd 75ca c3bd
00000180: 2e49 393e 015a cabd 898e 15be 6981 6fbd
00000190: f53b bbbd d892 3a3e 55da b7bb cffa 103e
000001a0: 5e90 35bd 7dea 71be 1d1b 103e bdfc 11be
000001b0: 2f93 1bbd bee4 3d3e d0f3 efbd ae5c 82bd
000001c0: fcd6 133e 5d32 95bd 543c 1bbd 96e0 343e
000001d0: a5dc 23be 8b00 53be 9a57 b83d e30d 5e3d
000001e0: 577e e93d 1531 58bb f310 543e 608d 5d3c
000001f0: fa27 c3bd 3bed b53d 0a64 6ebe 463a c5bd
00000200: 6345 d13d 7848 5ebe 504e 87bd a596 21be
00000210: 6f7b d2bd f35e 30be 1a01 0d3d b0b9 b83b
00000220: a5d7 5abe c79d 293e 531a 373e c786 5cbd
00000230: 80a1 59be 5c45 e0bd a7de f5bd 3371 d8bd
00000240: 149a 1fbd 5731 773d d0f3 17be c0f3 463e
00000250: 9397 383e a691 8e3d 8261 7b3d 274e c63d
00000260: a377 5ebd 9907 be3c a61a 443e 6872 63be
00000270: e4db 313e 5f72 79bd 40d1 68be cc94 723e
00000280: f0b2 a13d 68e3 633e 6b90 143d 2da5 01be
00000290: 7326 79be c751 123e 4d5a c43d 8878 6fbd
000002a0: 70df 9d3d f199 3f3e fd4f 60be 3bbb 313d
000002b0: 6974 523e ab26 da3c f114 44be edd9 34be
000002c0: 26fa 37be c712 3ebe 67ba fc3c 1f2a b4bd
000002d0: efdf ce3d 6972 563e a411 033e 25b0 34be
000002e0: 8a98 14be 83b3 8ebe 7a71 62bd ff23 6b3d
000002f0: 8395 9d3d fd93 8cbe e4b4 643e c806 ef3b
00000300: 7e91 22be e179 35be 58cc 423e 6413 52be
00000310: 6550 b73d c890 c03d 8b8e 82be 98eb 72be
00000320: 2991 543e bb06 483e 1a09 5e3e 0e71 243e
00000330: 297d afbd a8d2 08be 8ec6 b93d eacd 533e
00000340: b180 1a3e c210 81bd 1b34 e33d 31ee a4bd
00000350: 6287 653e a6ba 22be cde4 253e 00c6 643b
00000360: 11f0 e2bd 354d 4cbe 8145 22be 1dbd a13c
00000370: d735 12be a7e4 73be 3528 7ebe de8b ff3c
00000380: 2699 6ebe 01d3 9fbd b952 38bd b2ac 083d
00000390: e1e0 d2bd 8847 12bd 3ea2 09bd 636a c3bd
000003a0: ad6f 583e d9ca 413d e156 993b 10de 76be
000003b0: c451 bebc 3ad9 71bd 2496 d93d cb0e 6cbe
000003c0: 790f c9bd 48b9 99bd 4ced 093c b563 5c3e
000003d0: 9ed9 643e 48e7 4ebe 58a7 2fbe e207 0fbe
000003e0: 1b3c d13d 9098 12be 7b9c 133e 236d ccbd
000003f0: 97c0 4bbd 9c70 1e3d 3e5e f8bd a082 7abc

gen.2.0.bias f4 [32]
0.27836722 -0.19106352 0.26311067 -0.18233281 -0.18193683 0.2917253 -0.14917119 -0.0331689
-0.075714536 0.028111279 -0.21274668 -0.0054526785 -0.1551568 0.08792656 -0.052020542 0.02992511
-0.22903624 0.052427553 0.101013474 0.13548686 0.19255073 0.07109388 -0.20175044 0.19259211
0.20833834 -0.20195852 -0.17391558 -0.09393323 0.006635913 -0.15138172 -0.1456921 0.07674004
00000000: 2686 8e3e 28a6 43be 71b6 863e 74b5 3abe
00000010: a64d 3abe 055d 953e 55c0 18be 1ddc 07bd
00000020: 3910 9bbd a049 e63c 44da 59be 62ac b2bb
00000030: 6de1 1ebe d712 b43d 7e13 55bd 8125 f53c
00000040: 7a88 6abe 46be 563d 27e0 ce3d 11bd 0a3e
00000050: 052c 453e ab99 913d ab97 4ebe de36 453e
00000060: a556 553e 37ce 4ebe ed16 32be 1160 c0bd
00000070: 1372 d93b cf03 1bbe 4f30 15be e229 9d3d

gen.2.2.weight f4 [32]
1.0313258 1.0289311 1.0331761 1.075961 0.94457686 1.0665427 0.9961558 0.99243456
1.0239875 0.9493188 1.0223908 0.9873696 0.9456145 0.90620434 0.99953777 0.9865611
0.9298381 1.0075854 0.99638677 0.94452184 0.9723359 0.9480971 1.0847236 0.94680095
0.92739135 0.9115483 0.98437446 0.95049846 0.98308784 1.0722814 1.0523727 0.94344664
00000000: 7c02 843f 04b4 833f 1d3f 843f 17b9 893f
00000010: cacf 713f 7984 883f 1104 7f3f 3110 7e3f
00000020: 0612 833f 8f06 733f b4dd 823f 41c4 7c3f
00000030: cb13 723f 02fd 673f b5e1 7f3f 458f 7c3f
00000040: df09 6e3f 8ff8 803f 3413 7f3f 2fcc 713f
00000050: 01eb 783f 7eb6 723f 39d8 8a3f 8c61 723f
00000060: 8569 6d3f 3b5b 693f f7ff 7b3f de53 733f
00000070: a5ab 7b3f 8440 893f 26b4 863f b885 713f

gen.2.2.bias f4 [32]
0.027379818 0.09399926 0.081038214 0.08280501 -0.00053241616 0.061677717 0.032869227 0.03220338
0.03824269 -0.034470707 0.064542755 0.042339765 0.024877107 -0.04271161 0.0201099 0.0034041659
-0.02738496 0.060870964 0.045360863 0.0025581727 0.017698377 -0.041570522 0.103270754 0.004260875
-0.011507464 -0.0049844002 0.031498868 0.011866083 0.012526869 0.07149641 0.04537396 0.0044850027
00000000: a44b e03c af82 c03d 5df7 a53d ac95 a93d
00000010: d891 0bba c6a1 7c3d e2a1 063d b1e7 033d
00000020: 5ea4 1c3d 2831 0dbd fe2e 843d 766c 2d3d
00000030: 13cb cb3c 5ff2 2ebd 84bd a43c 6d18 5f3b
00000040: 6c56 e0bc d553 793d 50cc 393d 04a7 273b
00000050: 30fc 903c da45 2abd 9e7f d33d cf9e 8b3b
00000060: cd89 3cbc 2e54 a3bb f504 013d f669 423c
00000070: 7f3d 4d3c b66c 923d 0cda 393d eef6 923b

gen.2.2.running_mean f4 [32]
-0.023636593 0.3155833 0.18718487 -0.34253812 -0.2422557 -0.25668204 -0.24809287 -0.060082965
-0.5337625 0.2615399 -0.17663312 -0.228598 -0.15098359 -0.19927254 -0.35994652 -0.11106877
-0.020361397 0.059400607 0.11313052 0.06366289 0.11276867 -0.40171143 -0.41492483 0.49032813
0.29595107 -0.30021897 -0.26362583 0.35794434 0.13043873 -0.4794761 -0.52547044 0.3530345
00000000: 87a1 c1bc 2294 a13e 64ad 3f3e 2861 afbe
00000010: e111 78be d46b 83be 0f0c 7ebe 8e19 76bd
00000020: a9a4 08bf 8fe8 853e 50df 34be 9815 6abe
00000030: 719b 1abe 1a0e 4cbe e94a b8be 0678 e3bd
00000040: f2cc a6bc 0d4e 733d f9b0 e73d b061 823d
00000050: 43f3 e63d 1fad cdbe 0771 d4be 4a0c fb3e
00000060: e686 973e 4db6 99be f7f9 86be 7b44 b73e
00000070: bb91 053e e47d f5be 3b85 06bf f0c0 b43e

gen.2.2.running_var f4 [32]
0.11264654 0.2794651 0.15894084 0.1230129 0.17498852 0.13224372 0.12460917 0.123462774
0.19659838 0.25909385 0.12165989 0.2673906 0.20961133 0.18746719 0.20495206 0.20514126
0.13643852 0.1139963 0.13152437 0.092424646 0.1650826 0.23549862 0.16816652 0.17186593
0.18465386 0.27134967 0.10060091 0.23731904 0.116569564 0.27472278 0.22864254 0.5064155
00000000: 3bb3 e63d 0d16 8f3e 63c1 223e 30ee fb3d
00000010: 3130 333e e66a 073e 1833 ff3d 0dda fc3d
00000020: 1651 493e f3a7 843e d228 f93d 6ce7 883e
00000030: 5aa4 563e 66f7 3f3e f4de 513e 8d10 523e
00000040: 8ab6 0b3e e476 e93d 53ae 063e 2249 bd3d
00000050: 6a0b 293e 8d26 713e d833 2c3e 9ffd 2f3e
00000060: e715 3d3e 58ee 8a3e da07 ce3d c303 733e
00000070: 06bc ee3d 77a8 8c3e 4521 6a3e 72a4 013f

gen.3.0.weight f4 [64, 32]
-0.1455937 0.17462873 0.1365183 0.08875707 -0.03389397 -0.149813 -0.1120398 0.076585375
0.08936846 -0.07837848 0.092336275 -0.06720761 0.05722762 -0.129387 0.11036878 -0.08412355
-0.002773226 0.024457144 0.06293288 0.08103016 -0.05581306 0.010871208 0.074698225 0.1935762
0.12315306 0.0073232953 0.052605376 0.03934669 -0.06628458 0.20070566 -0.09708851 -0.033288546
0.1083846 0.04643854 0.097743265 0.1818473 -0.010315213 -0.021562455 -0.10601893 -0.009891564
0.20306832 -0.05551855 0.053819038 -0.13319696 0.08440534 -0.08545546 0.18228571 -0.0468082
0.12522578 -0.08619108 0.027520899 -0.1459328 0.06951356 0.09052321 0.06783841 0.049956653
0.010517439 0.14742897 0.017655823 0.029586647 0.10414094 -0.12695272 0.18254098 0.1894435
-0.06420917 0.06525319 -0.14380282 -0.15111704 -0.0044954354 -0.014816906 0.07941951 0.16152419
0.015909271 -0.040085126 -0.0067276754 -0.14111641 -0.10215946 -0.07940708 -0.0948509 -0.09036421
-0.11861476 0.17409143 -0.029798767 -0.088315494 -0.015826425 -0.056797255 -0.13329862 0.13656825
-0.09708557 -0.12583064 -0.16260953 0.022508979 -0.009470496 0.15105352 0.124262296 -0.025983261
-0.06909675 0.022362761 0.15240933 -0.0366468 -0.056643512 0.06653682 0.040738095 -0.020246185
0.17818062 -0.054997936 -0.027937215 0.060867466 0.024622822 0.102485985 0.14301512 -0.057063095
0.005187565 0.16938402 0.013265009 -0.08213131 0.094939366 -0.094998576 0.18820474 -0.10230302
-0.11603343 -0.12404746 -0.021154862 0.026353685 -0.06758272 0.03939297 0.076385416 0.08929605
-0.07251987 -0.09964957 -0.020595457 0.11430928 -0.041761585 0.10017386 -0.11265279 0.13393831
0.19614847 -0.035516966 0.12460813 -0.03092881 -0.020521127 -0.07191322 0.016331008 -0.079112604
-0.051424157 0.020475153 0.106937476 -0.038773205 -0.09910177 0.043217007 0.17522642 0.028807983
-0.082966894 -0.048719298 -0.10036167 0.010195804 0.012940254 0.07304102 -0.0032501027 -0.007937195
0.062455386 -0.025274392 0.1604125 -0.14532983 0.054611985 -0.002811513 -0.0084623415 -0.065846555
0.06291402 0.08043608 0.14982365 -0.15641758 0.09044029 0.040918063 -0.13695334 -0.08362623
0.08469541 0.16647898 0.19494624 0.008708665 -0.091314614 0.03955929 -0.05799966 -0.13183866
-0.0902201 -0.12733716 0.0992029 0.079182684 -0.10227576 -0.05658773 -0.030947743 -0.031775746
-0.09071499 0.08957496 -0.11001153 -0.08170802 0.010476423 -0.07638397 0.008513446 -0.038174096
-0.016683007 -0.12863699 -0.06873568 -0.16588499 -0.03626531 0.12735234 0.043208096 0.16459665
-0.013144137 0.13109289 0.013142402 0.02965101 -0.07834836 0.008286267 0.18691416 -0.113768004
-0.028072285 -0.08179999 0.014015526 -0.05261871 -0.13992943 0.17621237 -0.11959264 0.08458013
0.14231977 0.08386037 0.12032478 0.14446351 -0.1280889 0.12086993 0.18887389 -0.029804988
-0.033074647 0.048017778 -0.013190685 -0.10202371 0.10517026 0.09919178 0.07048174 -0.016324794
-0.10698912 0.18559097 -0.08234847 -0.07137414 0.09707394 0.12374439 0.016541472 0.14117157
-0.064622715 -0.048248984 0.025183624 0.029503759 -0.09633262 0.18408325 0.07847653 -0.09557047
00000000: 8416 15be e0d1 323e 74cb 0b3e 44c6 b53d
00000010: 67d4 0abd 9468 19be 1f75 e5bd cbd8 9c3d
00000020: d006 b73d e684 a0bd cd1a bd3d 25a4 89bd
00000030: 8267 6a3d 077e 04be 0709 e23d f848 acbd
00000040: 03bf 35bb 595a c83c f4e2 803d 24f3 a53d
00000050: 3c9c 64bd 271d 323c 62fb 983d d738 463e
00000060: ac37 fc3d 41f8 ef3b bc78 573d ff29 213d
00000070: 36c0 87bd c985 4d3e 57d6 c6bd 9259 08bd
00000080: bff8 dd3d 5736 3e3d 9f2d c83d 2e36 3a3e
00000090: 2401 29bc bfa3 b0bc 7420 d9bd 3a10 22bc
000000a0: 24f1 4f3e 6b67 63bd 5a71 5c3d c964 08be
000000b0: b5dc ac3d 4603 afbd 1ba9 3a3e f5b9 3fbd
000000c0: 303b 003e f384 b0bd 8273 e13c 686f 15be
000000d0: 205d 8e3d 3c64 b93d ddee 8a3d 599f 4c3d
000000e0: 5651 2c3c 9ff7 163e f2a2 903c b25f f23c
000000f0: d847 d53d e5ff 01be 06ec 3a3e 7afd 413e
00000100: 1980 83bd 77a3 853d 0c41 13be 6dbe 1abe
00000110: 724e 93bb 9cc2 72bc b2a6 a23d 9966 253e
00000120: 2954 823c 4d30 24bd d573 dcbb d280 10be
00000130: fb38 d1bd 2ea0 a2bd 3041 c2bd df10 b9bd
00000140: 4cec f2bd 0645 323e 8b1c f4bc c1de b4bd
00000150: 6ba6 81bc 3da4 68bd 6f7f 08be 8cd8 0b3e
00000160: cdd4 c6bd bfd9 00be 1d83 26be c064 b83c
00000170: 242a 1bbc c6ad 1a3e 3b7d fe3d d9da d4bc
00000180: 9982 8dbd 1c32 b73c 3111 1c3e f41a 16bd
00000190: 0703 68bd 7544 883d fddc 263d 54db a5bc
000001a0: fb74 363e 8445 61bd 96dc e4bc 2a50 793d
000001b0: cdb5 c93c 2ce4 d13d 8e72 123e feba 69bd
000001c0: 73fc a93b 0173 2d3e 7b55 593c 7634 a8bd
000001d0: 926f c23d 9d8e c2bd beb8 403e 3f84 d1bd
000001e0: efa2 edbd 980c febd f64c adbc afe3 d73c
000001f0: cf68 8abd 865a 213d f56f 9c3d d9e0 b63d
00000200: 4c85 94bd 1315 ccbd ceb7 a8bc fc1a ea3d
00000210: 320e 2bbd f427 cd3d 82b6 e6bd 2027 093e
00000220: 25db 483e 3d7a 11bd 8c32 ff3d 6a5e fdbc
00000230: ec1b a8bc 3d47 93bd 9bc8 853c ca05 a2bd
00000240: 23a2 52bd 82bb a73c 0902 db3d a7d0 1ebd
00000250: def5 cabd 5104 313d 8e6e 333e b8fe eb3c
00000260: 8cea a9bd e38d 47bd 6b8a cdbd 4d0c 273c
00000270: 5c03 543c 8896 953d adff 54bb 020b 02bc
00000280: 38d1 7f3d 3e0c cfbc 2d43 243e 58d1 14be
00000290: d1b0 5f3d 5c41 38bb a2a5 0abc 8fda 86bd
000002a0: 11d9 803d acbb a43d 5f6b 193e ee2b 20be
000002b0: c238 b93d b399 273d 7f3d 0cbe 3b44 abbd
000002c0: ca74 ad3d 7779 2a3e fd9f 473e caae 0e3c
000002d0: 2803 bbbd ec08 223d 0d91 6dbd b700 07be
000002e0: 51c5 b8bd ac64 02be e42a cb3d 882a a23d
000002f0: f475 d1bd 89c8 67bd 1f86 fdbc 4927 02bd
00000300: c8c8 b9bd 1473 b73d ba4d e1bd 8956 a7bd
00000310: 4ea5 2b3c 336f 9cbd fb7b 0b3c 715c 1cbd
00000320: cdaa 88bc 6ab9 03be 4bc5 8cbd c1dd 29be
00000330: ef8a 14bd a768 023e f9fa 303d 068c 283e
00000340: 825a 57bc 373d 063e 3b53 573c ade6 f23c
00000350: 1b75 a0bd 1fc3 073c 6d66 3f3e 33ff e8bd
00000360: d9f7 e5bc c186 a7bd 60a1 653c b786 57bd
00000370: a949 0fbe 0471 343e fcec f4bd 5938 ad3d
00000380: 46bc 113e fcbe ab3d d76c f63d 3eee 133e
00000390: bd29 03be a78a f73d 2868 413e 9729 f4bc
000003a0: 4879 07bd 4aae 443d be1d 58bc cff1 d0bd
000003b0: 8163 d73d 0f25 cb3d bb58 903d 93bb 85bc
000003c0: 1d1d dbbd 8f0b 3e3e 51a6 a8bd 9b2c 92bd
000003d0: b4ce c63d b36d fd3d fb81 873c 488f 103e
000003e0: ea58 84bd baa0 45bd e34d ce3c deb1 f13c
000003f0: 094a c5bd 5280 3c3e 4eb8 a03d 73ba c3bd

gen.3.0.bias f4 [64]
0.043987535 -0.14700946 -0.011900077 0.1768898 -0.025014179 -0.18074739 -0.065518156 0.096207775
-0.06492616 -0.15160476 -0.18277575 -0.00073230715 0.058270726 0.076864935 0.11927297 -0.07007954
0.0052942396 0.11934486 0.16270027 0.15502746 0.036433294 -0.21572444 0.03731874 -0.06332603
-0.23413908 -0.006399766 0.13917606 -0.08867076 0.17755996 0.1800177 -0.041735794 0.017268447
-0.16843385 0.07582432 -0.07847816 -0.09613661 -0.124512285 -0.069598824 0.19394146 0.020711888
0.12077711 0.16345479 -0.16570309 -0.005578479 -0.1790678 0.0073068053 -0.09998935 0.21521688
0.069080345 0.14280136 -0.09726409 0.08959953 0.14915755 -0.16988628 -0.20392366 0.18503578
-0.04327705 -0.13946213 -0.12255004 -0.14561144 0.15525086 0.17899127 0.081807695 -0.050968528
00000000: 462c 343d a689 16be 8af8 42bc 9a22 353e
00000010: 89ea ccbc d815 39be 622e 86bd 9508 c53d
00000020: 02f8 84bd 473e 1bbe 9129 3bbe 4df8 3fba
00000030: 49ad 6e3d 5d6b 9d3d 6345 f43d dd85 8fbd
00000040: 4d7b ad3b 146b f43d e69a 263e 85bf 1e3e
00000050: 143b 153d dee6 5cbe 89db 183d 14b1 81bd
00000060: 28c2 6fbe 21b5 d1bb 2b84 0e3e 0499 b5bd
00000070: 47d2 353e 8f56 383e 27f3 2abd 8f76 8d3c
00000080: ec79 2cbe c849 9b3d 28b9 a0bd 45e3 c4bd
00000090: 4c00 ffbd d489 8ebd 9798 463e faab a93c
000000a0: fd59 f73d b160 273e 12ae 29be accb b6bb
000000b0: 8d5d 37be ed6d ef3b 37c7 ccbd d061 5c3e
000000c0: ff79 8d3d 853a 123e 6532 c7bd f57f b73d
000000d0: c2bc 183e abf6 2dbe 5dd1 50be 057a 3d3e
000000e0: 4743 31bd 29cf 0ebe 84fb fabd 2a1b 15be
000000f0: 15fa 1e3e 7d49 373e cb8a a73d 60c4 50bd

gen.3.2.weight f4 [64]
1.1561518 1.0963628 1.1489081 1.1625669 1.2062199 1.1591088 1.1583321 1.1244729
1.1235641 1.1400367 1.1399205 1.0940157 1.1437552 1.1533172 1.1204681 1.1533056
1.1956333 1.1461339 1.0394206 1.1380578 1.0191638 1.079254 1.0425882 1.164439
1.1212124 1.1372404 1.102783 0.9259323 1.0640098 1.1530569 1.105267 1.113209
1.1157 1.0912901 1.1387694 1.1245198 1.1204289 1.1039611 1.0419163 1.1254064
1.1510838 1.0941803 1.1441369 1.0171541 1.0197881 1.0954366 1.1031275 1.1407511
1.116049 1.1584572 1.1321266 1.1454625 1.1272173 1.156084 1.0866339 1.154429
1.1361663 1.0284623 1.07093 1.1752654 1.1033192 1.1207135 1.1588999 1.1186244
00000000: c8fc 933f 9e55 8c3f 6c0f 933f fece 943f
00000010: 6a65 9a3f ad5d 943f 3a44 943f baee 8f3f
00000020: f3d0 8f3f b9ec 913f eae8 913f b508 8c3f
00000030: 9266 923f e69f 933f 806b 8f3f 859f 933f
00000040: 830a 993f 84b4 923f bc0b 853f e1ab 913f
00000050: f673 823f ff24 8a3f 8873 853f 560c 953f
00000060: e383 8f3f 1891 913f fe27 8d3f e609 6d3f
00000070: 7931 883f 5e97 933f 6479 8d3f a27d 8e3f
00000080: 42cf 8e3f 65af 8b3f 32c3 913f 44f0 8f3f
00000090: 376a 8f3f 994e 8d3f 835d 853f 510d 903f
000000a0: b756 933f 1a0e 8c3f 1473 923f 1b32 823f
000000b0: 6b88 823f 4437 8c3f 4833 8d3f 2204 923f
000000c0: b2da 8e3f 5348 943f 86e9 903f 849e 923f
000000d0: a848 903f 8ffa 933f d216 8b3f 54c4 933f
000000e0: e66d 913f a7a4 833f 3c14 893f 196f 963f
000000f0: 9039 8d3f 8a73 8f3f d556 943f 162f 8f3f

gen.3.2.bias f4 [64]
0.13118696 0.08717872 0.13301407 0.15496528 0.16700813 0.13692424 0.14149217 0.11158431
0.13387068 0.12030243 0.12376248 0.08587772 0.15494494 0.14199598 0.14325121 0.13446154
0.15354064 0.15528107 0.028921971 0.10491693 0.026572004 0.075030535 0.03967407 0.16392046
0.11465704 0.13337696 0.09666571 -0.08623009 0.05929774 0.14147109 0.08916052 0.12113063
0.104219496 0.087455064 0.13661407 0.11198654 0.11683907 0.11238781 0.027644573 0.12662025
0.14539544 0.07375293 0.1225864 0.014495997 -0.004473122 0.076088935 0.08911507 0.14284064
0.10981622 0.15549703 0.12175033 0.13903098 0.13722639 0.12951092 0.070877224 0.16328381
0.11729131 0.025128637 0.043123677 0.14253134 0.08951909 0.10606725 0.1755461 0.108956076
00000000: e055 063e c28a b23d d734 083e 38af 1e3e
00000010: 2e04 2b3e de35 0c3e 53e3 103e 5186 e43d
00000020: 6515 093e 1f61 f63d 2f77 fd3d a8e0 af3d
00000030: e3a9 1e3e 6567 113e 72b0 123e 49b0 093e
00000040: c239 1d3e 0002 1f3e c5ed ec3c b0de d63d
00000050: 88ad d93c 9ca9 993d 4781 223d c4da 273e
00000060: 4fd1 ea3d f893 083e acf8 c53d 6799 b0bd
00000070: 30e2 723d ccdd 103e ca99 b63d 5613 f83d
00000080: 0871 d53d a41b b33d 8fe4 0b3e 3359 e53d
00000090: 5349 ef3d 952b e63d df76 e23c bda8 013e
000000a0: 8be2 143e c70b 973d 940e fb3d 9e80 6d3c
000000b0: 4493 92bb 84d4 9b3d f681 b63d d144 123e
000000c0: 54e7 e03d 9d3a 1f3e 3d58 f93d 235e 0e3e
000000d0: 1385 0c3e 839e 043e 1428 913d df33 273e
000000e0: 6d36 f03d 92da cd3c 74a2 303d bcf3 113e
000000f0: c955 b73d c939 d93d 5bc2 333e 5d24 df3d

gen.3.2.running_mean f4 [64]
0.3355867 0.36397433 -0.3205218 0.43561277 0.09085875 -0.17610995 -0.19237177 0.6087887
0.3980043 -0.5224886 -0.09803645 0.42880312 0.44562155 0.5713305 0.48991534 0.373819
0.14079176 0.5757262 0.4365019 0.4818008 -0.4335117 -0.39092308 0.34578034 0.47822815
-0.45926854 0.47922456 -0.22626624 0.008951591 0.32035786 0.43716967 0.33235767 -0.14686179
-0.36503968 -0.2431989 -0.38721663 0.4554796 -0.19317287 0.415696 0.4473312 0.51076347
0.47234568 0.5737939 -0.13880745 0.02887611 0.17166226 0.0026628706 -0.18007776 0.6051069
0.45173782 0.49013767 -0.10680453 -0.35176647 0.43952024 -0.1670688 -0.3328607 0.46663895
-0.061534356 -0.21674526 -0.08417207 0.08742754 0.36642414 0.34915859 0.52925456 -0.2253412
00000000: 05d2 ab3e d85a ba3e 6f1b a4be a308 df3e
00000010: 2714 ba3d 2b56 34be 1bfd 44be 94d9 1b3f
00000020: 38c7 cb3e d0c1 05bf 56c7 c8bd 158c db3e
00000030: 8228 e43e b742 123f 2fd6 fa3e 3465 bf3e
00000040: b72b 103e cb62 133f 2d7d df3e 98ae f63e
00000050: 3ff5 ddbe 1227 c8be 1f0a b13e 52da f43e
00000060: 3f25 ebbe ec5c f53e 56b2 67be b2a9 123c
00000070: f205 a43e b4d4 df3e c92a aa3e f062 16be
00000080: 7be6 babe 2209 79be 4241 c6be 9f34 e93e
00000090: 1ccf 45be 1bd6 d43e 9808 e53e 65c1 023f
000000a0: 4bd7 f13e 28e4 123f 8a23 0ebe 988d ec3c
000000b0: 3bc8 2f3e 8e83 2e3b 4e66 38be 49e8 1a3f
000000c0: 2e4a e73e 53f3 fa3e 55bc dabd bc1a b4be
000000d0: cc08 e13e 1514 2bbe b86c aabe 4deb ee3e
000000e0: 730b 7cbd 78f2 5dbe 6862 acbd 360d b33d
000000f0: f29b bb3e eac4 b23e 3a7d 073f d8bf 66be

gen.3.2.running_var f4 [64]
0.2470835 0.20471719 0.19153102 0.23373066 0.1398551 0.13168597 0.12375472 0.3476018
0.2029906 0.22923715 0.14135744 0.2024232 0.28939977 0.30258098 0.29442912 0.22715442
0.1857068 0.33835995 0.27839896 0.30241108 0.22304909 0.18394044 0.201674 0.28687134
0.19441171 0.37453374 0.15866244 0.13981026 0.15925348 0.19689181 0.16936003 0.095237374
0.16581786 0.15990877 0.23907404 0.20722309 0.2504429 0.24388082 0.35584307 0.24215426
0.20990118 0.29853114 0.15595388 0.120472215 0.18576545 0.17378362 0.1343659 0.33446512
0.2109355 0.24758832 0.13704477 0.23036636 0.20193008 0.22331151 0.17200796 0.21963497
0.20188232 0.13128072 0.09594413 0.15523048 0.16411105 0.16929516 0.29536295 0.12451019
00000000: 7503 7d3e 62a1 513e b520 443e 1757 6f3e
00000010: 2d36 0f3e b0d8 063e 1d73 fd3d ddf8 b13e
00000020: c5dc 4f3e 25bd 6a3e 01c0 103e 0748 4f3e
00000030: 352c 943e e5eb 9a3e 6abf 963e 2b9b 683e
00000040: ec29 3e3e 843d ad3e 4f8a 8e3e a0d5 9a3e
00000050: fb66 643e e25a 3c3e a183 4e3e cde0 923e
00000060: dd13 473e e3c2 bf3e 6878 223e 6c2a 0f3e
00000070: 5813 233e 029e 493e b76c 2d3e d00b c33d
00000080: 28cc 293e 20bf 233e d3cf 743e 4a32 543e
00000090: 0d3a 803e e5bb 793e 1031 b63e 49f7 773e
000000a0: 56f0 563e 13d9 983e 60b2 1f3e 23ba f63d
000000b0: 4c39 3e3e 55f4 313e 3797 093e 033f ab3e
000000c0: 7aff 573e cb87 7d3e 7755 0c3e 29e5 6b3e
000000d0: c2c6 4e3e c6ab 643e db22 303e fde7 603e
000000e0: 3dba 4e3e 746e 063e 5b7e c43d bdf4 1e3e
000000f0: ba0c 283e b65b 2d3e d039 973e 33ff fe3d

gen.4.weight f4 [6, 64]
0.027775116 0.15494138 0.1467682 0.22846404 0.18782854 0.19508924 0.096057236 -0.008502019
0.031270474 0.066390105 0.061388277 -0.030150693 0.06176795 0.15088864 -0.026450278 0.12538317
0.16336648 0.09778032 0.031945582 0.021768725 0.00391259 0.012191541 0.048852336 0.16734903
0.20106463 0.014442614 0.103221655 0.02431385 0.046252068 0.14795701 -0.08871223 0.066183135
0.15593746 0.042393327 0.086838536 0.19100043 0.07732634 -0.035472535 -0.013655933 0.020755
0.2387777 0.062194135 0.20653152 0.13668486 0.03731691 0.17596509 0.11148293 0.12937644
0.0025952016 0.1900704 0.23066697 0.22683688 0.16709708 0.05914676 0.24654719 -0.005812438
-0.04310894 -0.025858853 0.17019214 0.19811232 0.052202757 -0.06586727 0.07077963 0.15244035
-0.0063951737 0.15035304 0.015136823 0.18118061 0.19023553 0.07587092 0.20373182 -0.004902983
0.083505034 0.06047425 0.18066205 0.15871625 0.047666613 0.05922398 0.122985624 0.08281789
0.053148918 0.13246292 0.110404305 0.20080769 0.18978074 0.18596476 0.01177377 0.14165539
0.021591915 -0.0018466418 0.12057011 -0.069900565 0.124328785 0.0077026845 0.14472693 0.14282952
0.094970345 0.019302975 0.05568005 0.17148742 0.09813919 0.12760139 0.041290157 0.21773687
0.14203496 0.10909669 -0.00021251153 0.019208077 0.011050081 -0.022647394 0.093266 0.08296216
0.17549156 0.21532361 0.07586005 0.066585205 0.054042354 0.06630825 -0.06843565 0.10150266
0.039004806 0.059783556 -0.048016362 0.13706559 0.061064098 0.1818341 0.069472365 0.016633375
0.16071917 0.073530555 0.08807926 0.110302106 0.16115727 0.124212086 0.2029513 0.16452752
0.101623915 0.13871574 0.083244786 0.14217004 0.055786774 0.0811629 0.24381857 0.0272778
0.28749028 0.074856 0.19273686 0.17124683 -0.019368801 0.060110975 0.018234765 0.21088621
0.2045943 0.21788967 0.20898622 -0.0012363275 0.056999527 0.1785382 0.102303594 0.14237837
0.064281255 0.08911274 0.0034146362 0.041473474 0.20310822 0.13734655 0.18458469 0.079085246
0.10463 0.18099937 0.1780223 0.034054432 0.0015471709 0.09059339 0.1456778 0.09861727
0.13947581 0.09984473 0.01742205 0.13152547 0.07750697 0.120918356 0.09294701 0.13969876
0.21432851 0.002269899 0.031064585 0.22551963 0.022184337 0.04631402 0.13815382 0.06445756
-0.007130459 0.00830697 0.01781707 0.123002656 0.17172965 0.17614825 0.056929756 0.20026068
0.10225828 0.211914 0.15450497 0.04783625 0.1692573 0.08453923 0.13721862 0.18726107
0.16146903 0.052145258 0.0665413 0.173735 0.07612645 0.029832719 0.03332006 0.15482242
0.15851168 0.14048728 0.07820722 0.09772135 0.07938805 0.14312823 -0.013911672 0.07485911
0.17339663 0.11984514 0.029734246 0.18595415 0.21489434 0.166211 0.026098914 0.04837048
0.21123794 -0.011275902 0.20215851 -0.045277007 -0.024904376 0.17395227 0.11705159 0.16395637
0.07692359 0.078525804 0.027218414 0.15348347 0.1947234 0.15969609 0.17195919 0.20484056
0.11160898 0.06635804 -0.08009219 -0.0035450931 -0.10488272 -0.019975124 0.10522336 -0.009134513
00000000: a488 e33c f4a8 1e3e 674a 163e 7af2 693e
00000010: 2056 403e 79c5 473e a8b9 c43d 0d4c 0bbc
00000020: 7815 003d 89f7 873d 4672 7b3d 96fe f6bc
00000030: 6400 7d3d 8d82 1a3e 41ae d8bc 7264 003e
00000040: 8b49 273e 0c41 c83d 5fd9 023d 5354 b23c
00000050: 2f35 803b 07bf 473c 6319 483d 8b5d 2b3e
00000060: e3e3 4d3e b7a0 6c3c e065 d33d d72d c73c
00000070: cf72 3d3d 0b82 173e c2ae b5bd 068b 873d
00000080: 12ae 1f3e a0a4 2d3d 67d8 b13d 9e95 433e
00000090: 465d 9e3d a64b 11bd 22bd 5fbc 6406 aa3c
000000a0: 2482 743e 47bf 7e3d 007d 533e 1ef7 0b3e
000000b0: 9ed9 183d 3130 343e 2a51 e43d 427b 043e
000000c0: 4214 2a3b d1a1 423e f633 6c3e ed47 683e
000000d0: 7f1b 2b3e df43 723d de76 7c3e 4476 bebb
000000e0: 0093 30bd f2d5 d3bc d946 2e3e f5dd 4a3e
000000f0: 8fd2 553d 6be5 86bd e9f4 903d 5319 1c3e
00000100: 9b8e d1bb 26f6 193e 7000 783c 6987 393e
00000110: 1acd 423e 3762 9b3d 139f 503e 34a9 a0bb
00000120: b004 ab3d d9b3 773d 79ff 383e 8386 223e
00000130: 113e 433d d894 723d e3df fb3d 6d9c a93d
00000140: aeb2 593d 5ca4 073e a71b e23d 88a0 4d3e
00000150: e255 423e 8c6d 3e3e c5e6 403c 1c0e 113e
00000160: 87e1 b03c 040b f2ba 76ed f63d 0728 8fbd
00000170: 17a0 fe3d cd66 fc3b 4c33 143e e741 123e
00000180: d07f c23d 4621 9e3c c410 643d 669a 2f3e
00000190: 33fd c83d f0a9 023e de1f 293d 6af6 5e3e
000001a0: 9d71 113e 166e df3d a1d5 5eb9 425a 9d3c
000001b0: 660b 353c 0787 b9bc 3f02 bf3d 11e8 a93d
000001c0: 0fb4 333e cb7d 5c3e 845c 9b3d d35d 883d
000001d0: 845b 5d3d 9fcc 873d fd27 8cbd a0e0 cf3d
000001e0: 81c3 1f3d 9adf 743d ceac 44bd ec5a 0c3e
000001f0: 591e 7a3d b832 3a3e 8747 8e3d b742 883c
00000200: 9193 243e 3097 963d e662 b43d 12e6 e13d
00000210: 6906 253e e862 fe3d 77d2 4f3e e779 283e
00000220: 3320 d03d 800b 0e3e 3e7c aa3d 0695 113e
00000230: ac80 643d bc38 a63d 93ab 793e b175 df3c
00000240: ed31 933e 1a4e 993d d05c 453e 545b 2f3e
00000250: 52ab 9ebc ed36 763d 1361 953c 8ef2 573e
00000260: 2b81 513e 781e 5f3e 7c00 563e 440c a2ba
00000270: 5678 693d b8d2 363e 8c84 d13d a3cb 113e
00000280: e4a5 833d bd80 b63d 17c8 5f3b 17e0 293d
00000290: 9afb 4f3e 93a4 0c3e c503 3d3e 72f7 a13d
000002a0: 4148 d63d e657 393e 7a4b 363e a97c 0b3d
000002b0: 71ca ca3a 0789 b93d 902c 153e daf7 c93d
000002c0: bfd2 0e3e 657b cc3d b0b8 8e3c 9dae 063e
000002d0: f9bb 9e3d 0ba4 f73d 015b be3d 310d 0f3e
000002e0: ef78 5b3e 96c2 143b 287b fe3c 9eee 663e
000002f0: edbb b53c c5b3 3d3d 3278 0d3e 5302 843d
00000300: a0a6 e9bb f519 083c 1bf5 913c d1e8 fb3d
00000310: e6d9 2f3e 3560 343e 2d2f 693d 2311 4d3e
00000320: ca6c d13d fcff 583e 8d36 1e3e f2ef 433d
00000330: c951 2d3e e722 ad3d 0a83 0c3e 5ec1 3f3e
00000340: 2358 253e 4496 553d ce46 883d 96e7 313e
00000350: 2fe8 9b3d bf63 f43c 9e7a 083d c589 1e3e
00000360: e350 223e e6db 0f3e 1b2b a03d 2222 c83d
00000370: 3496 a23d 3590 123e c8ed 63bc bc4f 993d
00000380: e38e 313e 5e71 f53d 3c95 f33c c46a 3e3e
00000390: 430d 5c3e 3733 2a3e 64cd d53c 2020 463d
000003a0: c24e 583e 90be 38bc a402 4f3e 6274 39bd
000003b0: 4304 ccbc 8b20 323e beb8 ef3d 2ee4 273e
000003c0: 1d8a 9d3d 23d2 a03d 27f9 de3c c52a 1d3e
000003d0: 9265 473e 5f87 233e 1216 303e b9c1 513e
000003e0: 4093 e43d b9e6 873d 6007 a4bd cb54 68bb
000003f0: c0cc d6bd dfa2 a3bc 587f d73d eda8 15bc

gen.4.bias f4 [6]
0.079673104 0.13531199 0.13990866 0.13451393 0.038645234 0.015964378
00000000: a72b a33d 3a8f 0a3e 3744 0f3e 05be 093e
00000010: 774a 1e3d bac7 823c

disc.0.0.weight f4 [32, 6]
-0.2246198 -0.17654862 -0.27620173 -0.15118514 -0.31324762 -0.26151294 -0.26814985 0.0912111
0.056338575 0.2049094 0.17728665 0.2781627 0.25083768 -0.20199367 0.2634252 -0.29508978
0.42977428 0.019800127 0.30691808 -0.013221495 0.016948745 0.25739074 0.41914353 -0.23936881
0.08215403 -0.19966447 0.29443833 0.26898944 -0.021773607 -0.33567473 0.40286586 -0.2591175
0.36373067 0.27253506 -0.23606126 -0.078340314 -0.19388545 0.18025318 -0.15203935 -0.23321553
-0.14255983 0.366755 -0.22733878 0.3370203 -0.4304107 -0.21324772 0.120576575 0.11852865
0.41511774 0.0019281034 -0.14881699 0.39430434 0.21300311 0.15204035 0.002599646 -0.13818492
-0.14274739 -0.40096456 -0.30733433 0.25598106 0.0037326643 -0.31801894 -0.17619798 -0.2567076
-0.22681893 0.23554921 0.27146438 -0.10658147 0.23821354 0.26621005 0.38643605 -0.21834195
-0.27004433 -0.2697286 -0.25551856 -0.40788403 -0.16697869 0.15123573 -0.40441963 -0.35555658
-0.19945204 -0.40704498 -0.25227502 0.0864427 -0.33987063 0.3211872 0.30508363 0.38774538
-0.26364917 -0.060081545 0.38439915 -0.015350521 -0.28288063 0.2280875 0.33229277 0.15122528
0.4021833 0.018488795 0.38073534 -0.09471428 0.36571592 -0.0016621072 0.37894583 0.40215835
-0.2198167 0.19430223 -0.27289075 -0.15268178 -0.3420892 0.1855097 -0.10873292 0.2846017
0.1355536 -0.10640858 0.011037475 0.20266218 0.07657754 -0.3198665 0.1608551 0.41956678
0.282424 0.003904471 0.24012709 0.2986647 0.31092045 -0.1506166 -0.22836168 0.0044968687
0.19829418 0.26038986 0.17571732 -0.2088738 0.024361119 -0.08523126 0.1288749 -0.11931821
0.421519 -0.09525358 -0.33993286 0.39250192 0.40644073 -0.19636175 0.44549462 -0.3211626
0.09117683 -0.12548096 -0.04772845 0.17354538 -0.24130455 -0.38086012 -0.40919003 -0.3878119
-0.01823072 0.08629636 -0.2826577 -0.14471312 -0.119024165 -0.18046077 0.07513913 0.32493845
0.09704911 -0.13489693 0.30222538 0.21045275 -0.36395162 0.0663154 -0.085752174 0.040324517
0.055274352 0.028979795 -0.15924603 0.14880686 -0.15031299 -0.16415612 0.07432211 -0.20971641
-0.11351539 0.28572416 0.38004845 0.42167392 0.14401002 0.03932688 0.06989521 0.006657232
0.025664393 0.1933059 -0.117919944 0.23749122 -0.102624536 0.12185689 -0.01866677 0.3223463
00000000: bc02 66be 29c9 34be 506a 8dbe 47d0 1abe
00000010: fe61 a0be 06e5 85be f04a 89be e3cc ba3d
00000020: 47c3 663d c5d3 513e a28a 353e 576b 8e3e
00000030: cc6d 803e 6ed7 4ebe abdf 863e 0216 97be
00000040: 600b dc3e e033 a23c 5e24 9d3e f89e 58bc
00000050: 18d8 8a3c b8c8 833e fb99 d63e 191d 75be
00000060: 5f40 a83d d874 4cbe 9fc0 963e fcb8 893e
00000070: 905e b2bc 8fdd abbe 6f44 ce3e 0dab 84be
00000080: e83a ba3e b789 8b3e 0bba 71be e370 a0bd
00000090: e889 46be 4a94 383e 34b0 1bbe 0dd0 6ebe
000000a0: 34fb 11be 50c7 bb3e 7fcb 68be ed8d ac3e
000000b0: cb5e dcbe 9c5d 5abe daf0 f63d 26bf f23d
000000c0: 508a d43e 6ab8 fc3a 7b63 18be 42e2 c93e
000000d0: 7d1d 5a3e 77b0 1b3e d35e 2a3b 5980 0dbe
000000e0: 5f2c 12be 3a4b cdbe ed5a 9dbe f30f 833e
000000f0: b79f 743b 61d3 a2be 3e6d 34be 2e6f 83be
00000100: 3943 68be d033 713e 61fd 8a3e 6347 dabd
00000110: 40ee 733e af4c 883e f2da c53e 0895 5fbe
00000120: 4043 8abe de19 8abe 54d3 82be 2dd6 d0be
00000130: 76fc 2abe 8add 1a3e 1710 cfbe 830b b6be
00000140: 283d 4cbe 3368 d0be 312a 81be df08 b13d
00000150: 8603 aebe a672 a43e ec33 9c3e 9086 c63e
00000160: 06fd 86be 1118 76bd f7cf c43e c080 7bbc
00000170: bbd5 90be c58f 693e 4722 aa3e cdda 1a3e
00000180: f8ea cd3e d075 973c beef c23e 8ff9 c1bd
00000190: 1e3f bb3e 10db d9ba 3005 c23e b3e7 cd3e
000001a0: a117 61be 2af7 463e 56b8 8bbe 9d58 1cbe
000001b0: 5126 afbe 41f6 3d3e 5daf debd 50b7 913e
000001c0: 90ce 0a3e beec d9bd 87d6 343c ad86 4f3e
000001d0: afd4 9c3d 8bc5 a3be 33b7 243e 75d1 d63e
000001e0: e199 903e 27e2 7f3b e0e3 753e 94ea 983e
000001f0: f730 9f3e 3d3b 1abe a5d7 69be 785a 933b
00000200: a10d 4b3e d251 853e 3eef 333e 03e3 55be
00000210: f890 c73c ba8d aebd c8f7 033e 1b5d f4bd
00000220: 57d1 d73e 4f14 c3bd ae0b aebe 03f6 c83e
00000230: 0019 d03e 0e13 49be df17 e43e 6d6f a4be
00000240: ebba ba3d 157e 00be e87e 43bd e1b5 313e
00000250: 8a18 77be 1900 c3be 5b81 d1be 488f c6be
00000260: 9758 95bc 25bc b03d 83b8 90be ad2f 14be
00000270: f1c2 f3bd b5ca 38be 8be2 993d 555e a63e
00000280: afc1 c63d 6c22 0abe 49bd 9a3e ed80 573e
00000290: de57 babe 5ed0 873d d69e afbd 522b 253d
000002a0: 5c67 623d 0967 ed3c 6411 23be d360 183e
000002b0: a6eb 19be 8b18 28be 3136 983d e6bf 56be
000002c0: c27a e8bd 704a 923e b695 c23e a5e5 d73e
000002d0: 5d77 133e 3915 213d 3825 8f3d e924 da3b
000002e0: 223e d23c fbf1 453e 0380 f1bd e630 733e
000002f0: d02c d2bd 1b90 f93d 0eeb 98bc 930a a53e

disc.0.0.bias f4 [32]
-0.10215977 -0.20857881 0.28678173 0.34862515 -0.12955798 0.008212597 0.034423377 -0.31076428
0.18603165 -0.4087152 0.3648161 -0.15091227 -0.20994467 0.08856966 0.2846593 -0.48402804
0.33715466 -0.18495367 0.14823164 -0.4149403 -0.108010285 -0.37866798 0.0222438 -0.26553237
0.048854157 -0.3997004 -0.32676873 -0.17621282 0.20123439 0.40328088 -0.2154281 0.30096433
00000000: 2439 d1bd af95 55be 0ed5 923e ff7e b23e
00000010: d9aa 04be 218e 063c 87ff 0c3d 7f1c 9fbe
00000020: 157f 3e3e 1e43 d1be 2dc9 ba3e bf88 1abe
00000030: bcfb 56be 0364 b53d ddbe 913e 86d2 f7be
00000040: 899f ac3e 7f64 3dbe 09ca 173e 0e73 d4be
00000050: 7f34 ddbd c5e0 c1be a138 b63c dcf3 87be
00000060: 4c1b 483d 88a5 ccbe 3b4e a7be 2271 34be
00000070: 6310 4e3e d57a ce3e 2f99 5cbe ff17 9a3e

disc.1.0.weight f4 [16, 32]
0.008992626 -0.098228805 -0.15334576 -0.00085133483 -0.1391916 0.022073908 -0.1087393 0.20981808
-0.04820252 0.16234706 -0.110599525 -0.022683682 0.101686396 0.14100629 -0.08072882 -0.17275263
0.12833548 -0.012804358 0.026121287 -0.017559499 0.093907885 0.05119032 -0.2582399 -0.064855054
-0.032082 -0.03433484 -0.19908234 0.13349506 -0.14214996 0.08246643 0.16886091 0.1613372
-0.05604541 0.2226493 -0.10274576 -0.1812346 0.18207704 -0.06612971 0.12576148 0.15248445
0.042605903 -0.047536023 0.011312909 -0.09291921 -0.13111083 0.1348952 -0.112483464 0.1802798
0.031734243 -0.09256126 -0.027043212 0.036622096 0.13572618 -0.01380787 0.027202228 0.051467557
0.10754603 -0.07080736 0.17836736 -0.031541318 0.049472146 -0.15883507 0.016702866 -0.0638295
-0.079622 0.17110725 -0.068531826 -0.080500975 -0.019998627 -0.047052793 -0.091769665 0.035676096
-0.19340615 0.24578097 0.03490033 -0.04921386 -0.033877455 -0.1266994 -0.1253895 0.0038813301
0.016403325 0.2114379 -0.084111 -0.068116635 0.1356081 0.02049397 0.0011931248 0.13801774
-0.13913892 0.22495474 -0.07270066 0.16900103 -0.17516491 0.12779137 -0.04385196 -0.11453322
-0.06871192 -0.1698703 -0.06747858 0.05629363 -0.13622783 0.08077121 -0.044782925 -0.15985437
0.09688546 -0.15030101 0.0954965 0.16940792 -0.029698918 -0.09464472 0.09093824 -0.05056172
0.026382938 -0.0074816737 0.22276568 -0.14250405 -0.03212891 -0.17395154 0.087917864 0.14090483
-0.008580467 -0.060146105 -0.22818999 0.074865416 0.03241415 0.13922682 0.0658091 0.017497336
0.052613992 0.15483426 0.046950735 0.055799205 0.08715188 0.12363975 -0.09893865 0.11269796
-0.17151153 0.07574588 -0.12932147 0.054764446 0.14471677 0.0857398 0.09896139 -0.021266485
-0.11621956 0.124706745 -0.0056692753 0.0966747 0.09556991 -0.004638972 -0.1377292 0.23831546
-0.09875239 0.12571332 0.0013800699 -0.08463594 -0.07443539 0.123096086 0.16995127 -0.05203802
0.008877407 0.12686537 -0.15657511 -0.2255183 0.07297273 -0.18746628 0.10304374 -0.059652615
0.055811252 -0.022390507 0.030702956 0.030587712 0.12922032 -0.11731456 -0.1376815 0.0459175
0.049101986 0.023476444 0.05251351 0.03897221 0.09221303 0.01826138 0.14188561 -0.08566633
-0.016884651 0.07505734 -0.06247466 0.09086639 -0.07513674 -0.05495847 -0.08355698 0.0027870168
-0.1337697 -0.107734874 0.062646866 -0.08127831 -0.079618685 -0.11301042 -0.1738531 0.20925403
-0.14422835 0.22084035 -0.06423341 0.014290904 0.010010007 -0.09103361 0.06445104 -0.08956673
-0.13267964 0.008237656 -0.19797255 0.09123113 -0.03838379 0.15621276 0.08286167 0.04917213
0.13633594 -0.12866889 0.0037963972 -0.10422286 -0.01081731 -0.06221449 -0.11622553 -0.06166054
-0.010122378 0.13611166 -0.08468269 0.1415494 0.106335096 0.13899796 0.122356415 -0.00866422
0.12089919 0.111745164 -0.20818928 -0.096804224 0.0540811 0.06460247 -0.13696854 0.24003284
-0.10181174 0.00011222258 -0.0039040772 0.1345107 0.13203475 0.23093356 0.15872355 -0.13524394
-0.06953598 0.10987254 0.029108549 -0.06444743 0.09176256 0.008564667 0.0005683177 -0.08893333
00000000: cf55 133c 2f2c c9bd ac06 1dbe 1d2c 5fba
00000010: 3e88 0ebe 57d4 b43c b6b2 debd 8dda 563e
00000020: 0170 45bd 4f3e 263e 0182 e2bd 21d3 b9bc
00000030: f540 d03d f463 103e 2755 a5bd 11e6 30be
00000040: 606a 033e 5fc9 51bc 4ffc d53c f0d8 8fbc
00000050: c752 c03d f1ac 513d 0538 84be bad2 84bd
00000060: 6a68 03bd b0a2 0cbd 3edc 4bbe eeb2 083e
00000070: c28f 11be 29e4 a83d e0e9 2c3e 9435 253e
00000080: df8f 65bd 2efe 633e 5e6c d2bd 9095 39be
00000090: 6772 3a3e 036f 87bd 9ec7 003e e224 1c3e
000000a0: 8783 2e3d 22b5 42bd c859 393c 6d4c bebd
000000b0: eb41 06be f821 0a3e bb5d e6bd 459b 383e
000000c0: c4fb 013d c290 bdbd ba89 ddbc 0d01 163d
000000d0: cefb 0a3e 683a 62bc 35d7 de3c a5cf 523d
000000e0: 1841 dc3d 7303 91bd efa5 363e 7831 01bd
000000f0: 4ea3 4a3d a9a5 22be 73d4 883c 0ab9 82bd
00000100: dc10 a3bd bd36 2f3e 6a5a 8cbd b2dd a4bd
00000110: 29d4 a3bc 6eba 40bd bcf1 bbbd 1921 123d
00000120: 430c 46be 02ae 7b3e a6f3 0e3d 7994 49bd
00000130: 16c3 0abd 7dbd 01be 1b66 00be ea5d 7e3b
00000140: 4460 863c 2d83 583e 6342 acbd bc80 8bbd
00000150: dadc 0a3e f8e2 a73c a062 9c3a 8654 0d3e
00000160: 6f7a 0ebe 895a 663e 15e4 94bd 9b0e 2d3e
00000170: 6e5e 33be bedb 023e 1d9e 33bd 6590 eabd
00000180: d6b8 8cbd 7bf2 2dbe 3632 8abd 2694 663d
00000190: 4f7f 0bbe 606b a53d 4d6e 37bd ddb0 23be
000001a0: e26b c63d 82e8 19be ab93 c33d 4579 2d3e
000001b0: 254b f3bc 17d5 c1bd d43d ba3d ce19 4fbd
000001c0: 0821 d83c d428 f5bb b01c 643e 95ec 11be
000001d0: 9b99 03bd 5a20 32be 480e b43d 5b49 103e
000001e0: 1695 0cbc c35b 76bd a3aa 69be 0a53 993d
000001f0: b3c4 043d 7a91 0e3e ecc6 863d 9356 8f3c
00000200: c581 573d df8c 1e3e 6a4f 403d b58d 643d
00000210: af7c b23d d636 fd3d 59a0 cabd 30ce e63d
00000220: b8a0 2fbe a820 9b3d d96c 04be af50 603d
00000230: a230 143e 5998 af3d 45ac ca3d 0d37 aebc
00000240: 8504 eebd 4066 ff3d 54c5 b9bb 63fd c53d
00000250: 28ba c33d 8502 98bb e208 0dbe f808 743e
00000260: b13e cabd feba 003e 76e3 b43a 9c55 adbd
00000270: 9571 98bd cd19 fc3d b507 2e3e d225 55bd
00000280: 8b72 113c ffe8 013e 3a55 20be 45ee 66be
00000290: ba72 953d 29f7 3fbe 9908 d33d 4d56 74bd
000002a0: 579a 643d 4c6c b7bc c484 fb3c 1593 fa3c
000002b0: 5552 043e 9e42 f0bd 61fc 0cbe fd13 3c3d
000002c0: 2a1f 493d ac51 c03c 6818 573d 53a1 1f3d
000002d0: 2fda bc3d e498 953c 764a 113e d471 afbd
000002e0: ae51 8abc aab7 993d 6ee5 7fbd 2818 ba3d
000002f0: 4be1 99bd 221c 61bd ec1f abbd 62a6 363b
00000300: edfa 08be 1aa4 dcbd 004d 803d 3e75 a6bd
00000310: 1f0f a3bd 0272 e7bd 8c06 32be b046 563e
00000320: 99b0 13be f923 623e ce8c 83bd 6524 6a3c
00000330: 0301 243c d46f babd e8fe 833d c36e b7bd
00000340: 2cdd 07be 3cf7 063c 51b9 4abe 63d7 ba3d
00000350: 5238 1dbd 3df6 1f3e 61b3 a93d b768 493d
00000360: a69b 0b3e c7c1 03be facc 783b cb72 d5bd
00000370: 163b 31bc 9fd4 7ebd a707 eebd c38f 7cbd
00000380: 55d8 25bc db60 0b3e 1e6e adbd 53f2 103e
00000390: 37c6 d93d 7b55 0e3e 0096 fa3d 5ff4 0dbc
000003a0: ff99 f73d a6da e43d 922f 55be 4b41 c6bd
000003b0: 2584 5d3d 4d4e 843d 7b41 0cbe 2bcb 753e
000003c0: ac82 d0bd 0a59 eb38 8cdb 7fbb 2cbd 093e
000003d0: 1e34 073e d979 6c3e 6d88 223e 637d 0abe
000003e0: e168 8ebd db04 e13d 0d75 ee3c 04fd 83bd
000003f0: 02ee bb3d d152 0c3c 28fb 143a ad22 b6bd

disc.1.0.bias f4 [16]
0.016315067 -0.09961 -0.14772353 -0.08055551 -0.11672935 -0.18420996 -0.19890003 -0.14781697
0.098819345 0.15607786 0.077818766 -0.003526888 -0.13322194 0.0044039837 -0.14683402 0.14333622
00000000: 2da7 853c 5400 ccbd d644 17be 4afa a4bd
00000010: cc0f efbd 89a1 3cbe 73ac 4bbe 555d 17be
00000020: cc61 ca3d e0d2 1f3e 725f 9f3d 5d23 67bb
00000030: 556b 08be 4b4f 903b a85b 16be bbc6 123e
